PCA_PLS/parameters/lr1e^-3_epoch30.pth (torch, 15342 bytes, 15 tensors)

weight f4 [10, 20]
0.017618967 0.43951184 2.9953227 2.7789843 4.745582 -2.7988496 -1.3330836 0.7087222
3.10142 -3.8718567 -4.960145 -4.2887397 -1.8878235 -6.1369586 -5.2489944 -0.633553
6.49971 4.9696026 -0.75112456 -4.8734775 -0.16802593 0.7374987 2.5640008 2.4150243
4.3750486 -2.528423 -1.3702345 0.84415084 2.844659 -3.6999452 -5.145001 -3.7811117
-1.8812084 -6.0542684 -5.1537514 -0.65626407 6.0999074 4.711413 -0.9254981 -4.4740567
-0.0871838 -0.858158 -3.7618093 -3.609783 -5.43741 3.3758385 1.7955829 -0.67950785
-3.3496788 3.9548376 5.7829676 4.5853224 2.2698 6.6665893 5.973679 0.44111377
-7.0197577 -5.195738 0.8565214 5.107016 0.11478338 0.7205635 2.9341278 2.8426716
4.7466936 -2.5152514 -1.3961198 0.8654449 2.8406858 -3.9084747 -5.0738187 -4.2223563
-2.255289 -6.2184615 -5.460089 -0.8430153 6.6210423 4.959017 -0.91569185 -4.542311
-0.13542947 0.5565304 2.5490823 2.6049635 4.367768 -2.4128711 -1.1500634 0.59206754
2.7263591 -3.404844 -4.9747276 -3.9826646 -2.0202193 -5.6762176 -5.262908 -0.46021518
5.99378 4.73307 -0.8325287 -4.451699 0.011783447 0.52490944 2.6784668 2.142649
4.159737 -2.4902203 -1.2275883 0.64647925 2.9177907 -3.266936 -5.0128136 -3.8062007
-2.1253264 -5.9934063 -5.1900496 -0.82114685 6.013857 4.6603546 -0.65107626 -4.2509613
0.010139504 -0.8122728 -2.856253 -2.5101614 -4.599598 2.8530617 1.2335122 -0.77026165
-3.0055695 3.5277843 5.122615 3.9501085 2.0794067 6.3156548 5.298044 0.49877158
-6.3417954 -4.797137 0.71789086 4.592819 -0.11409579 -0.6155453 -2.64925 -2.1758137
-4.2154856 2.2932484 1.1710237 -0.7771298 -2.5336154 3.274506 4.8048787 3.6942816
2.0229452 5.707515 4.970225 0.5751042 -5.9483576 -4.5357356 0.67961216 4.3954163
0.025389435 0.48226947 2.7005565 2.4313705 4.371262 -2.7327034 -1.2775047 0.72750914
2.8238907 -3.6434371 -4.814472 -3.7354562 -2.0562422 -5.8665404 -5.23214 -0.5774054
6.21345 4.8550186 -0.85998523 -4.2837024 -0.04557163 -0.6496968 -2.713249 -2.0990653
-4.1054296 2.5516655 1.1569405 -0.61652416 -2.5969088 3.4324374 4.689514 4.0132327
1.7452524 5.7264066 5.1433706 0.60310984 -5.9460664 -4.7227063 0.7318908 4.2395067
00000000: a755 903c b207 e13e 5eb3 3f40 e1da 3140
00000010: cfdb 9740 5a20 33c0 7ca2 aabf d16e 353f
00000020: aa7d 4640 80cc 77c0 82b9 9ec0 5b3d 89c0
00000030: 33a4 f1bf f761 c4c0 c3f7 a7c0 8830 22bf
00000040: a0fd cf40 fc06 9f40 b349 40bf 87f3 9bc0
00000050: fd0e 2cbe b7cc 3c3f 9718 2440 c28f 1a40
00000060: 6600 8c40 afd1 21c0 d863 afbf 451a 583f
00000070: e50e 3640 e7cb 6cc0 d9a3 a4c0 bcfd 71c0
00000080: 70cb f0bf 91bc c1c0 88eb a4c0 ec00 28bf
00000090: 7132 c340 e5c3 9640 72ed 6cbf 792b 8fc0
000000a0: 6c8d b2bd 3eb0 5bbf 7cc1 70c0 af06 67c0
000000b0: 43ff adc0 bd0d 5840 a9d5 e53f 3af4 2dbf
000000c0: 2361 56c0 0f1c 7d40 120e b940 f6ba 9240
000000d0: 6744 1140 b354 d540 6128 bf40 aad9 e13e
000000e0: dba1 e0c0 7c43 a6c0 fd44 5b3f ad6c a340
000000f0: 8c13 eb3d d976 383f c0c8 3b40 55ee 3540
00000100: eae4 9740 e1f9 20c0 0eb4 b2bf cc8d 5d3f
00000110: cccd 3540 7324 7ac0 b95c a2c0 8b1d 87c0
00000120: a856 10c0 a3fd c6c0 0db9 aec0 dacf 57bf
00000130: 94df d340 44b0 9e40 c86a 6abf 9d5a 91c0
00000140: 06ae 0abe c778 0e3f 2a24 2340 b9b7 2640
00000150: c1c4 8b40 7b6c 1ac0 4735 93bf bd91 173f
00000160: ab7c 2e40 f7e8 59c0 f830 9fc0 fae3 7ec0
00000170: 464b 01c0 93a3 b5c0 be69 a8c0 53a1 ebbe
00000180: 0ccd bf40 4f75 9740 9a20 55bf 5174 8ec0
00000190: 5c0f 413c 7760 063f 006c 2b40 2921 0940
000001a0: 911c 8540 c55f 1fc0 9d21 9dbf aa7f 253f
000001b0: 15bd 3a40 7b15 51c0 f868 a0c0 cb98 73c0
000001c0: 5905 08c0 fcc9 bfc0 e314 a6c0 ae36 52bf
000001d0: 8471 c040 a021 9540 efac 26bf e007 88c0
000001e0: 2a20 263c 1cf1 4fbf d9cc 36c0 7ca6 20c0
000001f0: e82f 93c0 9098 3640 bae3 9d3f de2f 45bf
00000200: 405b 40c0 38c7 6140 76ec a340 94ce 7c40
00000210: 0015 0540 d819 ca40 9489 a940 fd5e ff3e
00000220: fdef cac0 2582 99c0 b2c7 373f 60f8 9240
00000230: 0eab e9bd 6094 1dbf 508d 29c0 8840 0bc0
00000240: 42e5 86c0 95c4 1240 1be4 953f fbf1 46bf
00000250: c126 22c0 8291 5140 91c1 9940 1c6f 6c40
00000260: ef77 0140 f6a3 b640 150c 9f40 073a 133f
00000270: f258 bec0 bf24 91c0 10fb 2d3f 40a7 8c40
00000280: 81fd cf3c 06ec f63e ebd5 2c40 939b 1b40
00000290: 61e1 8b40 9de4 2ec0 4685 a3bf 0a3e 3a3f
000002a0: a0ba 3440 132e 69c0 2810 9ac0 b711 6fc0
000002b0: 7999 03c0 b3ba bbc0 b16d a7c0 d7d0 13bf
000002c0: 95d4 c640 505c 9b40 fe27 5cbf 1714 89c0
000002d0: 51a9 3abd 8852 26bf dfa5 2dc0 1657 06c0
000002e0: ae5f 83c0 7d4e 2340 a016 943f 87d4 1dbf
000002f0: c133 26c0 0ead 5b40 8010 9640 676c 8040
00000300: 6e64 df3f b93e b740 7e96 a440 6865 1a3f
00000310: 2d46 bec0 6920 97c0 325d 3b3f 0aaa 8740

bias f4 [10]
-0.08257561 -0.18564034 -0.08755404 -0.032366823 -0.28415456 -0.22309403 0.082153104 0.23122314
-0.2129027 0.311466
00000000: 671d a9bd 8018 3ebe 884f b3bd 1393 04bd
00000010: b57c 91be c372 64be e33f a83d c2c5 6c3e
00000020: 2a03 5abe 7978 9f3e

weight f4 [5, 10]
-0.9344776 -0.64401954 2.0468864 -1.1566803 -0.15720206 -0.5850152 1.0055945 0.71087766
-0.59984505 0.106593534 0.7306594 0.5007066 -2.3789656 0.61449564 0.712548 0.34450662
-0.96928364 -0.65470517 0.5048535 -0.27535778 0.28893393 0.1937487 -1.8382242 1.0311587
0.2539553 0.6191507 -0.32056788 -0.70194566 0.3560202 -0.64746344 0.38987702 0.09307877
-2.033748 1.1920661 0.08404082 0.3185145 -0.56932056 -0.2325881 0.4704998 -0.15491256
0.54606307 0.7251741 -2.0122614 1.0118515 0.54752713 0.6676993 -0.59629875 -0.2891833
0.70925677 -0.64670473
00000000: ed39 6fbf 77de 24bf 3000 0340 1a0e 94bf
00000010: 94f9 20be 8ec3 15bf 52b7 803f 14fc 353f
00000020: 728f 19bf b64d da3d 7f0c 3b3f 4f2e 003f
00000030: f940 18c0 964f 1d3f 8c69 363f 2c63 b03e
00000040: f922 78bf c29a 27bf 143e 013f b2fb 8cbe
00000050: 26ef 933e 0f66 463e ee4a ebbf 02fd 833f
00000060: 6e06 823e a980 1e3f 7921 a4be b6b2 33bf
00000070: 4848 b63e 2ac0 25bf f69d c73e 15a0 be3d
00000080: ed28 02c0 9f95 983f 981d ac3d 5514 a33e
00000090: febe 11bf 932b 6ebe 5ae5 f03e 66a1 1ebe
000000a0: caca 0b3f 03a5 393f e4c8 00c0 5a84 813f
000000b0: bd2a 0c3f 57ee 2a3f 09a7 18bf d50f 94be
000000c0: da91 353f 718e 25bf

bias f4 [5]
0.31191537 -0.20893624 0.037516 0.051939182 -0.24069753
00000000: 5fb3 9f3e 62f3 55be 61aa 193d 2ebe 543d
00000010: 6a79 76be

weight f4 [1, 5]
0.59903324 -0.62190914 -0.8638647 -0.7070205 -0.74690837
00000000: 3e5a 193f 7035 1fbf 3d26 5dbf 4cff 34bf
00000010: 6335 3fbf

exp_avg f4 [10, 20]
-0.0010311914 0.00010873273 4.0049043e-05 -0.00014658949 -3.408441e-05 -1.6576087e-07 6.964634e-05 -1.46640605e-05
3.5986995e-05 1.4985266e-05 6.2901577e-06 1.2978183e-05 2.4461373e-05 1.0433777e-05 1.3158251e-05 1.9304947e-05
-3.141215e-05 -1.5875246e-05 2.5101695e-06 2.6915539e-05 -0.00077931007 8.214309e-05 3.0254649e-05 -0.000110757836
-2.574206e-05 -1.0670746e-07 5.2594023e-05 -1.1096676e-05 2.7215405e-05 1.1328279e-05 4.7571198e-06 9.798553e-06
1.8489169e-05 7.893669e-06 9.95324e-06 1.458693e-05 -2.3747163e-05 -1.1997174e-05 1.8965947e-06 2.033938e-05
0.003834017 -0.00040494776 -0.00014903072 0.0005456421 0.00012712053 8.945238e-07 -0.0002597161 5.4307537e-05
-0.00013352749 -5.5728487e-05 -2.3418073e-05 -4.846217e-05 -9.099199e-05 -3.8740105e-05 -4.883949e-05 -7.1851995e-05
0.00011680053 5.9072776e-05 -9.348473e-06 -0.00010017863 -0.0018881663 0.00019924813 7.336819e-05 -0.00026852262
-6.248606e-05 -3.611815e-07 0.00012768153 -2.6802249e-05 6.5828805e-05 2.7434167e-05 1.15152825e-05 2.3803608e-05
4.4787932e-05 1.9082614e-05 2.4067142e-05 3.5361045e-05 -5.750144e-05 -2.9072648e-05 4.5984816e-06 4.9296315e-05
-0.0006484426 6.8324545e-05 2.5167656e-05 -9.214133e-05 -2.1407364e-05 -7.74738e-08 4.3736472e-05 -9.241844e-06
2.265585e-05 9.427181e-06 3.958865e-06 8.146716e-06 1.538457e-05 6.572077e-06 8.286428e-06 1.2135455e-05
-1.9762098e-05 -9.981772e-06 1.5776634e-06 1.6921735e-05 -0.0009655136 0.00010180408 3.748972e-05 -0.00013726074
-3.191576e-05 -1.4738073e-07 6.520536e-05 -1.3736375e-05 3.3702985e-05 1.4036414e-05 5.8955115e-06 1.21521625e-05
2.290963e-05 9.777208e-06 1.2327124e-05 1.8076908e-05 -2.9422476e-05 -1.48668305e-05 2.3506202e-06 2.5205736e-05
0.0012339927 -0.0001301562 -4.7930753e-05 0.00017544338 4.0804527e-05 2.0932777e-07 -8.337403e-05 1.753973e-05
-4.3054308e-05 -1.7933182e-05 -7.529512e-06 -1.553904e-05 -2.927454e-05 -1.2483941e-05 -1.5743031e-05 -2.3104785e-05
3.7590922e-05 1.8999293e-05 -3.0046078e-06 -3.2213375e-05 0.0009635563 -0.00010159619 -3.741267e-05 0.00013698122
3.1850155e-05 1.4463478e-07 -6.5070206e-05 1.3709993e-05 -3.3636024e-05 -1.40084985e-05 -5.8839664e-06 -1.2126952e-05
-2.2863365e-05 -9.758229e-06 -1.2303009e-05 -1.8040188e-05 2.9363522e-05 1.4836652e-05 -2.3457874e-06 -2.5154515e-05
-0.00097599346 0.000102907616 3.7897327e-05 -0.00013874802 -3.2260847e-05 -1.490822e-07 6.5911634e-05 -1.3885384e-05
3.4068624e-05 1.4188153e-05 5.9588506e-06 1.2283474e-05 2.315756e-05 9.8826995e-06 1.2460468e-05 1.827278e-05
-2.9740699e-05 -1.5027811e-05 2.3760615e-06 2.5478597e-05 0.00073423627 -7.738942e-05 -2.8501974e-05 0.00010435669
2.4254367e-05 9.777551e-08 -4.9551516e-05 1.0457024e-05 -2.5643816e-05 -1.0675159e-05 -4.4837784e-06 -9.232388e-06
-1.742178e-05 -7.4397485e-06 -9.379883e-06 -1.3743978e-05 2.2377346e-05 1.1304308e-05 -1.7869813e-06 -1.9164661e-05
00000000: 0b29 87ba 7107 e438 55fa 2738 d1b5 19b9
00000010: dbf5 0eb8 00fc 31b4 180f 9238 a905 76b7
00000020: bef0 1638 3a69 7b37 0b10 d336 dfbc 5937
00000030: 6632 cd37 bb0c 2f37 42c2 5c37 0ff1 a137
00000040: 8ac0 03b8 d52b 85b7 6274 2836 aec8 e137
00000050: 9d4a 4cba 3c44 ac38 5dcb fd37 a946 e8b8
00000060: a7f0 d7b7 0c27 e5b3 6798 5c38 dc2b 3ab7
00000070: a34c e437 960e 3e37 599f 9f36 7764 2437
00000080: 3019 9b37 0d6f 0437 d7fc 2637 63ba 7437
00000090: a534 c7b7 7847 49b7 7f8e fe35 7c9e aa37
000000a0: 2244 7b3b 2b4f d4b9 2145 1cb9 6c09 0f3a
000000b0: a84b 0539 351f 7035 812a 88b9 46c8 6338
000000c0: 8303 0cb9 02be 69b8 ee71 c4b7 dc43 4bb8
000000d0: f4d2 beb8 df7c 22b8 01d9 4cb8 3faf 96b8
000000e0: cff2 f438 e9c4 7738 63d7 1cb7 fe16 d2b8
000000f0: 597c f7ba 43ed 5039 3fdd 9938 7fc8 8cb9
00000100: f30a 83b8 68e8 c1b4 40e2 0539 64d5 e0b7
00000110: 920d 8a38 6d22 e637 c331 4137 dcad c737
00000120: adda 3b38 9a13 a037 cbe3 c937 a250 1438
00000130: b32d 71b8 09e1 f3b7 a84c 9a36 84c3 4e38
00000140: 3ffc 29ba 7649 8f38 211f d337 003c c1b8
00000150: f793 b3b7 ac5f a6b3 ae71 3738 6b0d 1bb7
00000160: 110d be37 6f29 1e37 64d6 8436 e1ad 0837
00000170: 1d0e 8137 b685 dc36 f005 0b37 6299 4b37
00000180: c8c6 a5b7 6277 27b7 1ac0 d335 26f3 8d37
00000190: 851a 7dba a67f d538 483e 1d38 a6ed 0fb9
000001a0: 49dd 05b8 b53f 1eb4 dcbe 8838 4875 66b7
000001b0: 4e5c 0d38 f07d 6b37 0fd2 c536 24e1 4b37
000001c0: 0e2e c037 ca08 2437 98d0 4e37 dda3 9737
000001d0: 49d0 f6b7 8d6c 79b7 59bf 1d36 e870 d337
000001e0: edbd a13a 8a7a 08b9 4109 49b8 39f7 3739
000001f0: 8725 2b38 94c3 6034 17d9 aeb8 4922 9337
00000200: 3695 34b8 376f 96b7 04a6 fcb6 d659 82b7
00000210: 9992 f5b7 1e72 51b7 e70f 84b7 26d1 c1b7
00000220: f2aa 1d38 ac60 9f37 c5a2 49b6 d91c 07b8
00000230: 2b97 7c3a 0a10 d5b8 8ceb 1cb8 9ea2 0f39
00000240: d896 0538 e84c 1b34 4d76 88b8 f903 6637
00000250: 6814 0db8 0b06 6bb7 e36e c5b6 dd74 4bb7
00000260: b4ca bfb7 46b7 23b7 0569 4eb7 0255 97b7
00000270: af51 f637 efea 7837 526c 1db6 e902 d3b7
00000280: d0d9 7fba 1bd0 d738 f2f3 1e38 e37c 11b9
00000290: d24f 07b8 6713 20b4 0a3a 8a38 45f5 68b7
000002a0: e8e4 0e38 a709 6e37 23f2 c736 1e15 4e37
000002b0: 7b42 c237 dfcd 2537 4d0d 5137 7f48 9937
000002c0: aa7b f9b7 f51f 7cb7 6d74 1f36 dfba d537
000002d0: c379 403a 214c a2b8 8617 efb7 12da da38
000002e0: db75 cb37 a8f8 d133 89d5 4fb8 9370 2f37
000002f0: ad1d d7b7 7519 33b7 5d73 96b6 cee4 1ab7
00000300: fd24 92b7 f4a2 f9b6 4a5e 1db7 f095 66b7
00000310: fcb6 bb37 a2a7 3d37 36d8 efb5 ccc3 a0b7

exp_avg_sq f4 [10, 20]
4.5556593e-05 3.913718e-06 6.851361e-07 3.2921477e-07 1.9913527e-07 1.1570075e-07 9.959345e-08 4.351207e-08
5.216745e-08 3.2115814e-08 3.55929e-08 1.5211269e-08 9.468083e-09 7.64134e-09 7.2748536e-09 3.7210313e-09
6.3728853e-09 1.8017592e-09 1.8039332e-09 3.3037386e-09 2.648186e-05 2.2757977e-06 3.9849388e-07 1.9131704e-07
1.1574403e-07 6.72413e-08 5.7869354e-08 2.527798e-08 3.0319743e-08 1.8661392e-08 2.0708336e-08 8.846123e-09
5.5032023e-09 4.4465267e-09 4.2338626e-09 2.1601916e-09 3.703957e-09 1.0464517e-09 1.047786e-09 1.9176774e-09
0.00064281217 5.5404656e-05 9.663755e-06 4.627473e-06 2.8081213e-06 1.6305822e-06 1.4045677e-06 6.143588e-07
7.3502065e-07 4.5394364e-07 5.034094e-07 2.1420603e-07 1.3382866e-07 1.0807264e-07 1.0246915e-07 5.2529852e-08
9.013207e-08 2.5407747e-08 2.540712e-08 4.6593392e-08 0.00015079453 1.2958762e-05 2.2666716e-06 1.0891132e-06
6.591745e-07 3.829535e-07 3.29742e-07 1.4412493e-07 1.7265108e-07 1.0638759e-07 1.17780914e-07 5.031326e-08
3.1353313e-08 2.5283041e-08 2.4047623e-08 1.2331483e-08 2.1107445e-08 5.9673124e-09 5.9727445e-09 1.0947272e-08
1.8486591e-05 1.5886928e-06 2.7827053e-07 1.3357618e-07 8.079903e-08 4.693856e-08 4.039015e-08 1.7639557e-08
2.1165725e-08 1.3022407e-08 1.44608885e-08 6.177457e-09 3.8410897e-09 3.1052303e-09 2.957892e-09 1.5069408e-09
2.5849989e-09 7.302421e-10 7.312329e-10 1.3377393e-09 4.087833e-05 3.5158782e-06 6.151017e-07 2.9504992e-07
1.7864619e-07 1.0376366e-07 8.931552e-08 3.9024595e-08 4.6785186e-08 2.8817935e-08 3.1986424e-08 1.3648946e-08
8.498455e-09 6.868152e-09 6.533387e-09 3.3346585e-09 5.720681e-09 1.6150258e-09 1.6165657e-09 2.9595237e-09
6.54598e-05 5.6262925e-06 9.844608e-07 4.7278039e-07 2.861095e-07 1.662206e-07 1.430915e-07 6.2526134e-08
7.494359e-08 4.6157687e-08 5.116343e-08 2.1851871e-08 1.3607973e-08 1.0984024e-08 1.0451324e-08 5.346743e-09
9.160212e-09 2.5886004e-09 2.5913143e-09 4.746426e-09 4.0815517e-05 3.510828e-06 6.141964e-07 2.9457618e-07
1.7836985e-07 1.0359978e-07 8.917301e-08 3.896195e-08 4.671104e-08 2.8772375e-08 3.1942058e-08 1.3628257e-08
8.485556e-09 6.8586843e-09 6.524288e-09 3.3290508e-09 5.711912e-09 1.6123854e-09 1.6138848e-09 2.9544287e-09
4.172551e-05 3.588445e-06 6.2782703e-07 3.012049e-07 1.8235023e-07 1.0591961e-07 9.117019e-08 3.9834077e-08
4.775692e-08 2.9413696e-08 3.2645858e-08 1.3932023e-08 8.674314e-09 7.0095822e-09 6.6686696e-09 3.404053e-09
5.8389187e-09 1.6486473e-09 1.6502584e-09 3.0212235e-09 2.3786793e-05 2.0454831e-06 3.5803532e-07 1.7174732e-07
1.03955806e-07 6.038202e-08 5.1964733e-08 2.2699737e-08 2.7226319e-08 1.6761822e-08 1.8615767e-08 7.945652e-09
4.944025e-09 3.997355e-09 3.8047725e-09 1.9391502e-09 3.327621e-09 9.394956e-10 9.405339e-10 1.7210728e-09
00000000: 0514 3f38 9552 8336 32ea 3735 efbe b034
00000010: e3d1 5534 2977 f833 14e0 d533 07e2 3a33
00000020: b80e 6033 b6ef 0933 cfde 1833 efa9 8232
00000030: 12a9 2232 f846 0332 4af6 f931 13b5 7f31
00000040: 7ef8 da31 c4a1 f730 42ee f730 fc07 6331
00000050: 5c25 de37 e8b9 1836 95f0 d534 d46c 4d34
00000060: f48e f833 4c66 9033 078c 7833 de22 d932
00000070: e938 0233 d64c a032 1de2 b132 a9f9 1732
00000080: ae16 bd31 10c8 9831 7379 9131 7e72 1431
00000090: b388 7e31 bfd2 8f30 b101 9030 23c8 0331
000000a0: 6582 283a 4c62 6838 8321 2237 b145 9b36
000000b0: 2873 3c36 61da da35 9484 bc35 6aea 2435
000000c0: 3c4e 4535 8ab5 f334 0822 0735 8100 6634
000000d0: 8bb2 0f34 9015 e833 030d dc33 2f9d 6133
000000e0: a18e c133 3a40 da32 d93e da32 fa1d 4833
000000f0: 991e 1e39 7669 5937 1f1d 1836 a52d 9235
00000100: 20f2 3035 ba98 cd34 6507 b134 c2c0 1a34
00000110: f861 3934 3277 e433 beee fc33 0418 5833
00000120: 55a9 0633 ff2d d932 4891 ce32 70da 5332
00000130: c34f b532 0909 cd31 d138 cd31 9d12 3c32
00000140: a713 9b37 123b d535 3665 9534 246d 0f34
00000150: bd83 ad33 7e99 4933 7179 2d33 cc85 9732
00000160: eccf b532 27b9 5f32 a96f 7832 7d41 d431
00000170: 95fa 8331 ca63 5531 c943 4b31 c41c cf30
00000180: c8a3 3131 38ba 4830 f1ff 4830 84db b730
00000190: c674 2b38 54f2 6b36 781d 2535 5a67 9e34
000001a0: e4d1 3f34 add4 de33 bacd bf33 ff9b 2733
000001b0: dbf0 4833 4f8b f732 7261 0933 b37c 6a32
000001c0: 9a00 1232 e7fc eb31 487c e031 ef27 6531
000001d0: a48f c431 abf7 dd30 d92d de30 7e60 4b31
000001e0: 7647 8938 7cc9 bc36 d121 8435 71d2 fd34
000001f0: 979a 9934 5f7a 3234 b1a4 1934 1b46 8633
00000200: adf0 a033 ea3e 4633 c9be 5b33 c6b4 bb32
00000210: 80c8 6932 40b4 3c32 698d 3332 73b6 b731
00000220: 0a5f 1d32 24e3 3131 e212 3231 0116 a331
00000230: 5431 2b38 919b 6b36 41df 2435 3e26 9e34
00000240: ee85 3f34 957a de33 617f bf33 1e57 2733
00000250: 559f 4833 1f27 f732 aa30 0933 b521 6a32
00000260: dfc7 1132 a0a9 eb31 3f2c e031 48c5 6431
00000270: 8242 c431 c59a dd30 86cf dd30 dc06 4b31
00000280: 6d02 2f38 04d1 7036 f287 2835 49b5 a134
00000290: 0dcc 4334 ec75 e333 58c9 c333 0816 2b33
000002a0: 4a1d 4d33 67a9 fc32 8036 0c33 af59 6f32
000002b0: 0906 1532 f0d8 f031 3d22 e531 bcec 6931
000002c0: ac9f c831 9f96 e230 4ecf e230 ed9d 4f31
000002d0: c089 c737 2245 0936 0038 c034 8b69 3834
000002e0: 4f3e df33 5eab 8133 d42f 5f33 40fd c232
000002f0: 4fdf e932 a3fb 8f32 81e8 9f32 5981 0832
00000300: 1be0 a931 1b59 8931 22bb 8231 e441 0531
00000310: 21ac 6431 901f 8130 1844 8130 de8a ec30

exp_avg f4 [10]
0.10524264 0.079479195 -0.39241382 0.19292504 0.066096306 0.09853547 -0.12598446 -0.09833162
0.09960254 -0.07488287
00000000: 7489 d73d fdc5 a23d 77ea c8be 248e 453e
00000010: 805d 873d f7cc c93d 1202 01be 1762 c9bd
00000020: 6bfc cb3d 315c 99bd

exp_avg_sq f4 [10]
0.10029189 0.058308944 1.4161234 0.33197305 0.040706147 0.09002348 0.14412539 0.08988806
0.09188685 0.05238409
00000000: d665 cd3d 5cd5 6e3d 8843 b53f 5ff8 a93e
00000010: 7dbb 263d 3b5e b83d 9b95 133e 3b17 b83d
00000020: 2c2f bc3d b390 563d

exp_avg f4 [5, 10]
0.002984761 0.006239169 0.0024680744 0.0013887017 0.00945422 0.0074957977 -0.002931144 -0.0077903233
0.0071903863 -0.010364885 -0.0030990376 -0.0064780675 -0.0025626007 -0.0014418594 -0.0098162275 -0.007782812
0.0030433694 0.008088614 -0.0074657034 0.010761761 -0.0043076053 -0.009004588 -0.0035622346 -0.0020040616
-0.013644695 -0.010818175 0.0042302413 0.011243218 -0.010377373 0.014958974 -0.0035244976 -0.007367655
-0.0029147884 -0.0016396964 -0.011164302 -0.008851595 0.0034611903 0.009199388 -0.008490923 0.012239694
-0.0037233904 -0.007783259 -0.0030789755 -0.0017323078 -0.011793988 -0.009350864 0.003656514 0.0097182635
-0.008969857 0.012930011
00000000: fb9b 433b f171 cc3b 6bbf 213b 1905 b63a
00000010: dfe5 1a3c 4f9f f53b 7018 40bb f845 ffbb
00000020: 559d eb3b 7bd1 29bc 3919 4bbb f845 d4bb
00000030: 4ef1 27bb c6fc bcba 3ed4 20bc f606 ffbb
00000040: 4473 473b 1b86 043c dca2 f4bb 1952 303c
00000050: d026 8dbb fb87 13bc 6174 69bb 9356 03bb
00000060: 008e 5fbc b73e 31bc d69d 8a3b 7935 383c
00000070: db05 2abc 7c16 753c 42fb 66bb 5f6c f1bb
00000080: 0906 3fbb 15eb d6ba 7aea 36bc 4806 11bc
00000090: 23d5 623b 08b9 163c 831d 0bbc ff88 483c
000000a0: 2004 74bb b50a ffbb a3c8 49bb 9b0e e3ba
000000b0: 923b 41bc 5e34 19bc 20a2 6f3b 5a39 1f3c
000000c0: 4ff6 12bc 66d8 533c

exp_avg_sq f4 [5, 10]
8.3638166e-05 0.00037594305 6.840663e-05 1.7265038e-05 0.0008508277 0.0005252998 8.1276325e-05 0.0005582492
0.00048087587 0.0010026238 9.018229e-05 0.00040535285 7.3755844e-05 1.861622e-05 0.0009173845 0.00056639314
8.763541e-05 0.0006019192 0.0005184934 0.0010810572 0.00017472143 0.0007851658 0.00014279877 3.6079677e-05
0.0017768595 0.001097048 0.00016978178 0.0011658483 0.0010042802 0.0020938285 0.000113747 0.0005118407
9.332926e-05 2.3441677e-05 0.0011587457 0.0007153826 0.000110553745 0.00076028134 0.00065485283 0.0013656613
0.00013093358 0.00058832235 0.000106977146 2.7042577e-05 0.0013313526 0.0008219895 0.00012722955 0.0008735375
0.0007524853 0.0015688242
00000000: e666 af38 391a c539 8875 8f38 63d4 9037
00000010: 150a 5f3a 46b4 093a e572 aa38 7857 123a
00000020: 111e fc39 796a 833a 4020 bd38 8a85 d439
00000030: 5ead 9a38 072a 9c37 a27c 703a 007a 143a
00000040: e7c8 b738 1dca 1d3a 81eb 073a 43b2 8d3a
00000050: 6d35 3739 96d3 4d3a 41bc 1539 4254 1738
00000060: 83e5 e83a d3ca 8f3a 7307 3239 61cf 983a
00000070: 0da2 833a 9d38 093b 758b ee38 0c2d 063a
00000080: c4b9 c338 9ea4 c437 0ee1 973a 8388 3b3a
00000090: 17d9 e738 9e4d 473a 6eaa 2b3a fdff b23a
000000a0: 374b 0939 a539 1a3a eb58 e038 7ed9 e237
000000b0: c880 ae3a c87a 573a ec68 0539 1cfe 643a
000000c0: 6f42 453a 01a1 cd3a

exp_avg f4 [5]
-0.032454703 0.03369745 0.046840195 0.038325693 0.040486835
00000000: 39ef 04bd 5606 0a3d 81db 3f3d 67fb 1c3d
00000010: 86d5 253d

exp_avg_sq f4 [5]
0.009859994 0.010631215 0.02058857 0.0134384595 0.015425202
00000000: d08b 213c 8c2e 2e3c 5ca9 a83c fc2c 5c3c
00000010: fdb9 7c3c

exp_avg f4 [1, 5]
-0.05542481 0.05132881 0.03401956 0.013726255 0.06066446
00000000: 2005 63bd 293e 523d 1858 0b3d 16e4 603c
00000010: 4c7b 783d

exp_avg_sq f4 [1, 5]
0.028619159 0.024603877 0.010663607 0.0017649113 0.03442768
00000000: ba72 ea3c 128e c93c 69b6 2e3c 9954 e73a
00000010: 0a04 0d3d
